…
I0606 11:02:22.667769 23498 net.cpp:323] The NetState phase (0) differed from the phase (1) specified by a rule in layer accuracy
I0606 11:02:22.667953 23498 net.cpp:52] Initializing net from parameters: 
name: "AlexNet"
state {
  phase: TRAIN
}
layer {
  name: "data"
  type: "Data"
  top: "data"
  top: "label"
  include {
    phase: TRAIN
  }
  transform_param {
    mirror: true
    crop_size: 227
    mean_file: "/scratch/digits/deps/caffe/examples/birds/input/imagenet_mean.binaryproto"
  }
  data_param {
    source: "/scratch/digits/deps/caffe/examples/birds/input/train_lmdb"
    batch_size: 256
    backend: LMDB
  }
}
layer {
  name: "conv1"
  type: "Convolution"
  bottom: "data"
  top: "conv1"
  param {
    lr_mult: 1
    decay_mult: 1
  }
  param {
    lr_mult: 2
    decay_mult: 0
  }
  convolution_param {
    num_output: 96
    kernel_size: 11
    stride: 4
    weight_filler {
      type: "gaussian"
      std: 0.01
    }
    bias_filler {
      type: "constant"
      value: 0
    }
  }
}
layer {
  name: "relu1"
  type: "ReLU"
  bottom: "conv1"
  top: "conv1"
}
layer {
  name: "norm1"
  type: "LRN"
  bottom: "conv1"
  top: "norm1"
  lrn_param {
    local_size: 5
    alpha: 0.0001
    beta: 0.75
  }
}
layer {
  name: "pool1"
  type: "Pooling"
  bottom: "norm1"
  top: "pool1"
  pooling_param {
    pool: MAX
    kernel_size: 3
    stride: 2
  }
}
layer {
  name: "conv2"
  type: "Convolution"
  bottom: "pool1"
  top: "conv2"
  param {
    lr_mult: 1
    decay_mult: 1
  }
  param {
    lr_mult: 2
    decay_mult: 0
  }
  convolution_param {
    num_output: 256
    pad: 2
    kernel_size: 5
    group: 2
    weight_filler {
      type: "gaussian"
      std: 0.01
    }
    bias_filler {
      type: "constant"
      value: 0.1
    }
  }
}
layer {
  name: "relu2"
  type: "ReLU"
  bottom: "conv2"
  top: "conv2"
}
layer {
  name: "norm2"
  type: "LRN"
  bottom: "conv2"
  top: "norm2"
  lrn_param {
    local_size: 5
    alpha: 0.0001
    beta: 0.75
  }
}
layer {
  name: "pool2"
  type: "Pooling"
  bottom: "norm2"
  top: "pool2"
  pooling_param {
    pool: MAX
    kernel_size: 3
    stride: 2
  }
}
layer {
  name: "conv3"
  type: "Convolution"
  bottom: "pool2"
  top: "conv3"
  param {
    lr_mult: 1
    decay_mult: 1
  }
  param {
    lr_mult: 2
    decay_mult: 0
  }
  convolution_param {
    num_output: 384
    pad: 1
    kernel_size: 3
    weight_filler {
      type: "gaussian"
      std: 0.01
    }
    bias_filler {
      type: "constant"
      value: 0
    }
  }
}
layer {
  name: "relu3"
  type: "ReLU"
  bottom: "conv3"
  top: "conv3"
}
layer {
  name: "conv4"
  type: "Convolution"
  bottom: "conv3"
  top: "conv4"
  param {
    lr_mult: 1
    decay_mult: 1
  }
  param {
    lr_mult: 2
    decay_mult: 0
  }
  convolution_param {
    num_output: 384
    pad: 1
    kernel_size: 3
    group: 2
    weight_filler {
      type: "gaussian"
      std: 0.01
    }
    bias_filler {
      type: "constant"
      value: 0.1
    }
  }
}
layer {
  name: "relu4"
  type: "ReLU"
  bottom: "conv4"
  top: "conv4"
}
layer {
  name: "conv5"
  type: "Convolution"
  bottom: "conv4"
  top: "conv5"
  param {
    lr_mult: 1
    decay_mult: 1
  }
  param {
    lr_mult: 2
    decay_mult: 0
  }
  convolution_param {
    num_output: 256
    pad: 1
    kernel_size: 3
    group: 2
    weight_filler {
      type: "gaussian"
      std: 0.01
    }
    bias_filler {
      type: "constant"
      value: 0.1
    }
  }
}
layer {
  name: "relu5"
  type: "ReLU"
  bottom: "conv5"
  top: "conv5"
}
layer {
  name: "pool5"
  type: "Pooling"
  bottom: "conv5"
  top: "pool5"
  pooling_param {
    pool: MAX
    kernel_size: 3
    stride: 2
  }
}
layer {
  name: "fc6"
  type: "InnerProduct"
  bottom: "pool5"
  top: "fc6"
  param {
    lr_mult: 1
    decay_mult: 1
  }
  param {
    lr_mult: 2
    decay_mult: 0
  }
  inner_product_param {
    num_output: 4096
    weight_filler {
      type: "gaussian"
      std: 0.005
    }
    bias_filler {
      type: "constant"
      value: 0.1
    }
  }
}
layer {
  name: "relu6"
  type: "ReLU"
  bottom: "fc6"
  top: "fc6"
}
layer {
  name: "drop6"
  type: "Dropout"
  bottom: "fc6"
  top: "fc6"
  dropout_param {
    dropout_ratio: 0.5
  }
}
layer {
  name: "fc7"
  type: "InnerProduct"
  bottom: "fc6"
  top: "fc7"
  param {
    lr_mult: 1
    decay_mult: 1
  }
  param {
    lr_mult: 2
    decay_mult: 0
  }
  inner_product_param {
    num_output: 4096
    weight_filler {
      type: "gaussian"
      std: 0.005
    }
    bias_filler {
      type: "constant"
      value: 0.1
    }
  }
}
layer {
  name: "relu7"
  type: "ReLU"
  bottom: "fc7"
  top: "fc7"
}
layer {
  name: "drop7"
  type: "Dropout"
  bottom: "fc7"
  top: "fc7"
  dropout_param {
    dropout_ratio: 0.5
  }
}
layer {
  name: "fc8"
  type: "InnerProduct"
  bottom: "fc7"
  top: "fc8"
  param {
    lr_mult: 1
    decay_mult: 1
  }
  param {
    lr_mult: 2
    decay_mult: 0
  }
  inner_product_param {
    num_output: 6
    weight_filler {
      type: "gaussian"
      std: 0.01
    }
    bias_filler {
      type: "constant"
      value: 0
    }
  }
}
layer {
  name: "loss"
  type: "SoftmaxWithLoss"
  bottom: "fc8"
  bottom: "label"
  top: "loss"
}
I0606 11:02:22.668064 23498 layer_factory.hpp:77] Creating layer data
I0606 11:02:22.668639 23498 net.cpp:94] Creating Layer data
I0606 11:02:22.668670 23498 net.cpp:409] data -> data
I0606 11:02:22.668694 23498 net.cpp:409] data -> label
I0606 11:02:22.668732 23498 data_transformer.cpp:25] Loading mean file from: /scratch/digits/deps/caffe/examples/birds/input/imagenet_mean.binaryproto
I0606 11:02:22.669400 23506 db_lmdb.cpp:35] Opened lmdb /scratch/digits/deps/caffe/examples/birds/input/train_lmdb
I0606 11:02:22.671412 23498 data_layer.cpp:78] ReshapePrefetch 256, 3, 227, 227
I0606 11:02:22.671489 23498 data_layer.cpp:83] output data size: 256,3,227,227
I0606 11:02:22.844295 23498 net.cpp:144] Setting up data
I0606 11:02:22.844344 23498 net.cpp:151] Top shape: 256 3 227 227 (39574272)
I0606 11:02:22.844352 23498 net.cpp:151] Top shape: 256 (256)
I0606 11:02:22.844353 23498 net.cpp:159] Memory required for data: 158298112
I0606 11:02:22.844390 23498 layer_factory.hpp:77] Creating layer conv1
I0606 11:02:22.844419 23498 net.cpp:94] Creating Layer conv1
I0606 11:02:22.844427 23498 net.cpp:435] conv1 <- data
I0606 11:02:22.844473 23498 net.cpp:409] conv1 -> conv1
I0606 11:02:22.846320 23498 net.cpp:144] Setting up conv1
I0606 11:02:22.846333 23498 net.cpp:151] Top shape: 256 96 55 55 (74342400)
I0606 11:02:22.846359 23498 net.cpp:159] Memory required for data: 455667712
I0606 11:02:22.846407 23498 layer_factory.hpp:77] Creating layer relu1
I0606 11:02:22.846416 23498 net.cpp:94] Creating Layer relu1
I0606 11:02:22.846420 23498 net.cpp:435] relu1 <- conv1
I0606 11:02:22.846436 23498 net.cpp:396] relu1 -> conv1 (in-place)
I0606 11:02:22.846457 23498 net.cpp:144] Setting up relu1
I0606 11:02:22.846462 23498 net.cpp:151] Top shape: 256 96 55 55 (74342400)
I0606 11:02:22.846463 23498 net.cpp:159] Memory required for data: 753037312
I0606 11:02:22.846467 23498 layer_factory.hpp:77] Creating layer norm1
I0606 11:02:22.846472 23498 net.cpp:94] Creating Layer norm1
I0606 11:02:22.846475 23498 net.cpp:435] norm1 <- conv1
I0606 11:02:22.846479 23498 net.cpp:409] norm1 -> norm1
I0606 11:02:22.859120 23498 net.cpp:144] Setting up norm1
I0606 11:02:22.859134 23498 net.cpp:151] Top shape: 256 96 55 55 (74342400)
I0606 11:02:22.859143 23498 net.cpp:159] Memory required for data: 1050406912
I0606 11:02:22.859148 23498 layer_factory.hpp:77] Creating layer pool1
I0606 11:02:22.859167 23498 net.cpp:94] Creating Layer pool1
I0606 11:02:22.859170 23498 net.cpp:435] pool1 <- norm1
I0606 11:02:22.859191 23498 net.cpp:409] pool1 -> pool1
I0606 11:02:22.859252 23498 net.cpp:144] Setting up pool1
I0606 11:02:22.859257 23498 net.cpp:151] Top shape: 256 96 27 27 (17915904)
I0606 11:02:22.859261 23498 net.cpp:159] Memory required for data: 1122070528
I0606 11:02:22.859262 23498 layer_factory.hpp:77] Creating layer conv2
I0606 11:02:22.859269 23498 net.cpp:94] Creating Layer conv2
I0606 11:02:22.859272 23498 net.cpp:435] conv2 <- pool1
I0606 11:02:22.859275 23498 net.cpp:409] conv2 -> conv2
I0606 11:02:22.863296 23498 net.cpp:144] Setting up conv2
I0606 11:02:22.863329 23498 net.cpp:151] Top shape: 256 256 27 27 (47775744)
I0606 11:02:22.863332 23498 net.cpp:159] Memory required for data: 1313173504
I0606 11:02:22.863346 23498 layer_factory.hpp:77] Creating layer relu2
I0606 11:02:22.863373 23498 net.cpp:94] Creating Layer relu2
I0606 11:02:22.863378 23498 net.cpp:435] relu2 <- conv2
I0606 11:02:22.863384 23498 net.cpp:396] relu2 -> conv2 (in-place)
I0606 11:02:22.863394 23498 net.cpp:144] Setting up relu2
I0606 11:02:22.863399 23498 net.cpp:151] Top shape: 256 256 27 27 (47775744)
I0606 11:02:22.863400 23498 net.cpp:159] Memory required for data: 1504276480
I0606 11:02:22.863402 23498 layer_factory.hpp:77] Creating layer norm2
I0606 11:02:22.863409 23498 net.cpp:94] Creating Layer norm2
I0606 11:02:22.863411 23498 net.cpp:435] norm2 <- conv2
I0606 11:02:22.863415 23498 net.cpp:409] norm2 -> norm2
I0606 11:02:22.863484 23498 net.cpp:144] Setting up norm2
I0606 11:02:22.863492 23498 net.cpp:151] Top shape: 256 256 27 27 (47775744)
I0606 11:02:22.863493 23498 net.cpp:159] Memory required for data: 1695379456
I0606 11:02:22.863497 23498 layer_factory.hpp:77] Creating layer pool2
I0606 11:02:22.863503 23498 net.cpp:94] Creating Layer pool2
I0606 11:02:22.863507 23498 net.cpp:435] pool2 <- norm2
I0606 11:02:22.863510 23498 net.cpp:409] pool2 -> pool2
I0606 11:02:22.863539 23498 net.cpp:144] Setting up pool2
I0606 11:02:22.863543 23498 net.cpp:151] Top shape: 256 256 13 13 (11075584)
I0606 11:02:22.863546 23498 net.cpp:159] Memory required for data: 1739681792
I0606 11:02:22.863548 23498 layer_factory.hpp:77] Creating layer conv3
I0606 11:02:22.863555 23498 net.cpp:94] Creating Layer conv3
I0606 11:02:22.863559 23498 net.cpp:435] conv3 <- pool2
I0606 11:02:22.863562 23498 net.cpp:409] conv3 -> conv3
I0606 11:02:22.873514 23498 net.cpp:144] Setting up conv3
I0606 11:02:22.873812 23498 net.cpp:151] Top shape: 256 384 13 13 (16613376)
I0606 11:02:22.873847 23498 net.cpp:159] Memory required for data: 1806135296
I0606 11:02:22.873885 23498 layer_factory.hpp:77] Creating layer relu3
I0606 11:02:22.873924 23498 net.cpp:94] Creating Layer relu3
I0606 11:02:22.873950 23498 net.cpp:435] relu3 <- conv3
I0606 11:02:22.873978 23498 net.cpp:396] relu3 -> conv3 (in-place)
I0606 11:02:22.874009 23498 net.cpp:144] Setting up relu3
I0606 11:02:22.874035 23498 net.cpp:151] Top shape: 256 384 13 13 (16613376)
I0606 11:02:22.874068 23498 net.cpp:159] Memory required for data: 1872588800
I0606 11:02:22.874095 23498 layer_factory.hpp:77] Creating layer conv4
I0606 11:02:22.874130 23498 net.cpp:94] Creating Layer conv4
I0606 11:02:22.874155 23498 net.cpp:435] conv4 <- conv3
I0606 11:02:22.874181 23498 net.cpp:409] conv4 -> conv4
I0606 11:02:22.881496 23498 net.cpp:144] Setting up conv4
I0606 11:02:22.881788 23498 net.cpp:151] Top shape: 256 384 13 13 (16613376)
I0606 11:02:22.881824 23498 net.cpp:159] Memory required for data: 1939042304
I0606 11:02:22.881866 23498 layer_factory.hpp:77] Creating layer relu4
I0606 11:02:22.881912 23498 net.cpp:94] Creating Layer relu4
I0606 11:02:22.881943 23498 net.cpp:435] relu4 <- conv4
I0606 11:02:22.881979 23498 net.cpp:396] relu4 -> conv4 (in-place)
I0606 11:02:22.882045 23498 net.cpp:144] Setting up relu4
I0606 11:02:22.882092 23498 net.cpp:151] Top shape: 256 384 13 13 (16613376)
I0606 11:02:22.882117 23498 net.cpp:159] Memory required for data: 2005495808
I0606 11:02:22.882143 23498 layer_factory.hpp:77] Creating layer conv5
I0606 11:02:22.882174 23498 net.cpp:94] Creating Layer conv5
I0606 11:02:22.882200 23498 net.cpp:435] conv5 <- conv4
I0606 11:02:22.882239 23498 net.cpp:409] conv5 -> conv5
I0606 11:02:22.887517 23498 net.cpp:144] Setting up conv5
I0606 11:02:22.887735 23498 net.cpp:151] Top shape: 256 256 13 13 (11075584)
I0606 11:02:22.887768 23498 net.cpp:159] Memory required for data: 2049798144
I0606 11:02:22.887817 23498 layer_factory.hpp:77] Creating layer relu5
I0606 11:02:22.887861 23498 net.cpp:94] Creating Layer relu5
I0606 11:02:22.887888 23498 net.cpp:435] relu5 <- conv5
I0606 11:02:22.887917 23498 net.cpp:396] relu5 -> conv5 (in-place)
I0606 11:02:22.887951 23498 net.cpp:144] Setting up relu5
I0606 11:02:22.887979 23498 net.cpp:151] Top shape: 256 256 13 13 (11075584)
I0606 11:02:22.888011 23498 net.cpp:159] Memory required for data: 2094100480
I0606 11:02:22.888042 23498 layer_factory.hpp:77] Creating layer pool5
I0606 11:02:22.888073 23498 net.cpp:94] Creating Layer pool5
I0606 11:02:22.888098 23498 net.cpp:435] pool5 <- conv5
I0606 11:02:22.888128 23498 net.cpp:409] pool5 -> pool5
I0606 11:02:22.888233 23498 net.cpp:144] Setting up pool5
I0606 11:02:22.888267 23498 net.cpp:151] Top shape: 256 256 6 6 (2359296)
I0606 11:02:22.888291 23498 net.cpp:159] Memory required for data: 2103537664
I0606 11:02:22.888315 23498 layer_factory.hpp:77] Creating layer fc6
I0606 11:02:22.888356 23498 net.cpp:94] Creating Layer fc6
I0606 11:02:22.888381 23498 net.cpp:435] fc6 <- pool5
I0606 11:02:22.888409 23498 net.cpp:409] fc6 -> fc6
I0606 11:02:23.220392 23498 net.cpp:144] Setting up fc6
I0606 11:02:23.220413 23498 net.cpp:151] Top shape: 256 4096 (1048576)
I0606 11:02:23.220417 23498 net.cpp:159] Memory required for data: 2107731968
I0606 11:02:23.220425 23498 layer_factory.hpp:77] Creating layer relu6
I0606 11:02:23.220432 23498 net.cpp:94] Creating Layer relu6
I0606 11:02:23.220434 23498 net.cpp:435] relu6 <- fc6
I0606 11:02:23.220440 23498 net.cpp:396] relu6 -> fc6 (in-place)
I0606 11:02:23.220448 23498 net.cpp:144] Setting up relu6
I0606 11:02:23.220464 23498 net.cpp:151] Top shape: 256 4096 (1048576)
I0606 11:02:23.220466 23498 net.cpp:159] Memory required for data: 2111926272
I0606 11:02:23.220468 23498 layer_factory.hpp:77] Creating layer drop6
I0606 11:02:23.220479 23498 net.cpp:94] Creating Layer drop6
I0606 11:02:23.220496 23498 net.cpp:435] drop6 <- fc6
I0606 11:02:23.220500 23498 net.cpp:396] drop6 -> fc6 (in-place)
I0606 11:02:23.220521 23498 net.cpp:144] Setting up drop6
I0606 11:02:23.220526 23498 net.cpp:151] Top shape: 256 4096 (1048576)
I0606 11:02:23.220528 23498 net.cpp:159] Memory required for data: 2116120576
I0606 11:02:23.220531 23498 layer_factory.hpp:77] Creating layer fc7
I0606 11:02:23.220536 23498 net.cpp:94] Creating Layer fc7
I0606 11:02:23.220540 23498 net.cpp:435] fc7 <- fc6
I0606 11:02:23.220543 23498 net.cpp:409] fc7 -> fc7
I0606 11:02:23.359092 23498 net.cpp:144] Setting up fc7
I0606 11:02:23.359113 23498 net.cpp:151] Top shape: 256 4096 (1048576)
I0606 11:02:23.359117 23498 net.cpp:159] Memory required for data: 2120314880
I0606 11:02:23.359124 23498 layer_factory.hpp:77] Creating layer relu7
I0606 11:02:23.359130 23498 net.cpp:94] Creating Layer relu7
I0606 11:02:23.359133 23498 net.cpp:435] relu7 <- fc7
I0606 11:02:23.359138 23498 net.cpp:396] relu7 -> fc7 (in-place)
I0606 11:02:23.359145 23498 net.cpp:144] Setting up relu7
I0606 11:02:23.359148 23498 net.cpp:151] Top shape: 256 4096 (1048576)
I0606 11:02:23.359150 23498 net.cpp:159] Memory required for data: 2124509184
I0606 11:02:23.359153 23498 layer_factory.hpp:77] Creating layer drop7
I0606 11:02:23.359171 23498 net.cpp:94] Creating Layer drop7
I0606 11:02:23.359174 23498 net.cpp:435] drop7 <- fc7
I0606 11:02:23.359176 23498 net.cpp:396] drop7 -> fc7 (in-place)
I0606 11:02:23.359205 23498 net.cpp:144] Setting up drop7
I0606 11:02:23.359221 23498 net.cpp:151] Top shape: 256 4096 (1048576)
I0606 11:02:23.359237 23498 net.cpp:159] Memory required for data: 2128703488
I0606 11:02:23.359241 23498 layer_factory.hpp:77] Creating layer fc8
I0606 11:02:23.359261 23498 net.cpp:94] Creating Layer fc8
I0606 11:02:23.359263 23498 net.cpp:435] fc8 <- fc7
I0606 11:02:23.359267 23498 net.cpp:409] fc8 -> fc8
I0606 11:02:23.359549 23498 net.cpp:144] Setting up fc8
I0606 11:02:23.359555 23498 net.cpp:151] Top shape: 256 6 (1536)
I0606 11:02:23.359557 23498 net.cpp:159] Memory required for data: 2128709632
I0606 11:02:23.359561 23498 layer_factory.hpp:77] Creating layer loss
I0606 11:02:23.359565 23498 net.cpp:94] Creating Layer loss
I0606 11:02:23.359567 23498 net.cpp:435] loss <- fc8
I0606 11:02:23.359570 23498 net.cpp:435] loss <- label
I0606 11:02:23.359575 23498 net.cpp:409] loss -> loss
I0606 11:02:23.359582 23498 layer_factory.hpp:77] Creating layer loss
…
I0606 11:02:23.360137 23498 net.cpp:323] The NetState phase (1) differed from the phase (0) specified by a rule in layer data
I0606 11:02:23.360258 23498 net.cpp:52] Initializing net from parameters: 
name: "AlexNet"
state {
  phase: TEST
}
layer {
  name: "data"
  type: "Data"
  top: "data"
  top: "label"
  include {
    phase: TEST
  }
  transform_param {
    mirror: false
    crop_size: 227
    mean_file: "/scratch/digits/deps/caffe/examples/birds/input/imagenet_mean.binaryproto"
  }
  data_param {
    source: "/scratch/digits/deps/caffe/examples/birds/input/validation_lmdb"
    batch_size: 50
    backend: LMDB
  }
}
layer {
  name: "conv1"
  type: "Convolution"
  bottom: "data"
  top: "conv1"
  param {
    lr_mult: 1
    decay_mult: 1
  }
  param {
    lr_mult: 2
    decay_mult: 0
  }
  convolution_param {
    num_output: 96
    kernel_size: 11
    stride: 4
    weight_filler {
      type: "gaussian"
      std: 0.01
    }
    bias_filler {
      type: "constant"
      value: 0
    }
  }
}
layer {
  name: "relu1"
  type: "ReLU"
  bottom: "conv1"
  top: "conv1"
}
layer {
  name: "norm1"
  type: "LRN"
  bottom: "conv1"
  top: "norm1"
  lrn_param {
    local_size: 5
    alpha: 0.0001
    beta: 0.75
  }
}
layer {
  name: "pool1"
  type: "Pooling"
  bottom: "norm1"
  top: "pool1"
  pooling_param {
    pool: MAX
    kernel_size: 3
    stride: 2
  }
}
layer {
  name: "conv2"
  type: "Convolution"
  bottom: "pool1"
  top: "conv2"
  param {
    lr_mult: 1
    decay_mult: 1
  }
  param {
    lr_mult: 2
    decay_mult: 0
  }
  convolution_param {
    num_output: 256
    pad: 2
    kernel_size: 5
    group: 2
    weight_filler {
      type: "gaussian"
      std: 0.01
    }
    bias_filler {
      type: "constant"
      value: 0.1
    }
  }
}
layer {
  name: "relu2"
  type: "ReLU"
  bottom: "conv2"
  top: "conv2"
}
layer {
  name: "norm2"
  type: "LRN"
  bottom: "conv2"
  top: "norm2"
  lrn_param {
    local_size: 5
    alpha: 0.0001
    beta: 0.75
  }
}
layer {
  name: "pool2"
  type: "Pooling"
  bottom: "norm2"
  top: "pool2"
  pooling_param {
    pool: MAX
    kernel_size: 3
    stride: 2
  }
}
layer {
  name: "conv3"
  type: "Convolution"
  bottom: "pool2"
  top: "conv3"
  param {
    lr_mult: 1
    decay_mult: 1
  }
  param {
    lr_mult: 2
    decay_mult: 0
  }
  convolution_param {
    num_output: 384
    pad: 1
    kernel_size: 3
    weight_filler {
      type: "gaussian"
      std: 0.01
    }
    bias_filler {
      type: "constant"
      value: 0
    }
  }
}
layer {
  name: "relu3"
  type: "ReLU"
  bottom: "conv3"
  top: "conv3"
}
layer {
  name: "conv4"
  type: "Convolution"
  bottom: "conv3"
  top: "conv4"
  param {
    lr_mult: 1
    decay_mult: 1
  }
  param {
    lr_mult: 2
    decay_mult: 0
  }
  convolution_param {
    num_output: 384
    pad: 1
    kernel_size: 3
    group: 2
    weight_filler {
      type: "gaussian"
      std: 0.01
    }
    bias_filler {
      type: "constant"
      value: 0.1
    }
  }
}
layer {
  name: "relu4"
  type: "ReLU"
  bottom: "conv4"
  top: "conv4"
}
layer {
  name: "conv5"
  type: "Convolution"
  bottom: "conv4"
  top: "conv5"
  param {
    lr_mult: 1
    decay_mult: 1
  }
  param {
    lr_mult: 2
    decay_mult: 0
  }
  convolution_param {
    num_output: 256
    pad: 1
    kernel_size: 3
    group: 2
    weight_filler {
      type: "gaussian"
      std: 0.01
    }
    bias_filler {
      type: "constant"
      value: 0.1
    }
  }
}
layer {
  name: "relu5"
  type: "ReLU"
  bottom: "conv5"
  top: "conv5"
}
layer {
  name: "pool5"
  type: "Pooling"
  bottom: "conv5"
  top: "pool5"
  pooling_param {
    pool: MAX
    kernel_size: 3
    stride: 2
  }
}
layer {
  name: "fc6"
  type: "InnerProduct"
  bottom: "pool5"
  top: "fc6"
  param {
    lr_mult: 1
    decay_mult: 1
  }
  param {
    lr_mult: 2
    decay_mult: 0
  }
  inner_product_param {
    num_output: 4096
    weight_filler {
      type: "gaussian"
      std: 0.005
    }
    bias_filler {
      type: "constant"
      value: 0.1
    }
  }
}
layer {
  name: "relu6"
  type: "ReLU"
  bottom: "fc6"
  top: "fc6"
}
layer {
  name: "drop6"
  type: "Dropout"
  bottom: "fc6"
  top: "fc6"
  dropout_param {
    dropout_ratio: 0.5
  }
}
layer {
  name: "fc7"
  type: "InnerProduct"
  bottom: "fc6"
  top: "fc7"
  param {
    lr_mult: 1
    decay_mult: 1
  }
  param {
    lr_mult: 2
    decay_mult: 0
  }
  inner_product_param {
    num_output: 4096
    weight_filler {
      type: "gaussian"
      std: 0.005
    }
    bias_filler {
      type: "constant"
      value: 0.1
    }
  }
}
layer {
  name: "relu7"
  type: "ReLU"
  bottom: "fc7"
  top: "fc7"
}
layer {
  name: "drop7"
  type: "Dropout"
  bottom: "fc7"
  top: "fc7"
  dropout_param {
    dropout_ratio: 0.5
  }
}
layer {
  name: "fc8"
  type: "InnerProduct"
  bottom: "fc7"
  top: "fc8"
  param {
    lr_mult: 1
    decay_mult: 1
  }
  param {
    lr_mult: 2
    decay_mult: 0
  }
  inner_product_param {
    num_output: 6
    weight_filler {
      type: "gaussian"
      std: 0.01
    }
    bias_filler {
      type: "constant"
      value: 0
    }
  }
}
layer {
  name: "accuracy"
  type: "Accuracy"
  bottom: "fc8"
  bottom: "label"
  top: "accuracy"
  include {
    phase: TEST
  }
}
layer {
  name: "loss"
  type: "SoftmaxWithLoss"
  bottom: "fc8"
  bottom: "label"
  top: "loss"
}
I0606 11:02:23.360347 23498 layer_factory.hpp:77] Creating layer data
I0606 11:02:23.360599 23498 net.cpp:94] Creating Layer data
I0606 11:02:23.360608 23498 net.cpp:409] data -> data
I0606 11:02:23.360615 23498 net.cpp:409] data -> label
I0606 11:02:23.360620 23498 data_transformer.cpp:25] Loading mean file from: /scratch/digits/deps/caffe/examples/birds/input/imagenet_mean.binaryproto
I0606 11:02:23.361217 23512 db_lmdb.cpp:35] Opened lmdb /scratch/digits/deps/caffe/examples/birds/input/validation_lmdb
I0606 11:02:23.362319 23498 data_layer.cpp:78] ReshapePrefetch 50, 3, 227, 227
I0606 11:02:23.362391 23498 data_layer.cpp:83] output data size: 50,3,227,227
I0606 11:02:23.397672 23498 net.cpp:144] Setting up data
I0606 11:02:23.397716 23498 net.cpp:151] Top shape: 50 3 227 227 (7729350)
I0606 11:02:23.397720 23498 net.cpp:151] Top shape: 50 (50)
I0606 11:02:23.397724 23498 net.cpp:159] Memory required for data: 30917600
I0606 11:02:23.397729 23498 layer_factory.hpp:77] Creating layer label_data_1_split
I0606 11:02:23.397756 23498 net.cpp:94] Creating Layer label_data_1_split
I0606 11:02:23.397761 23498 net.cpp:435] label_data_1_split <- label
I0606 11:02:23.397770 23498 net.cpp:409] label_data_1_split -> label_data_1_split_0
I0606 11:02:23.397779 23498 net.cpp:409] label_data_1_split -> label_data_1_split_1
I0606 11:02:23.397826 23498 net.cpp:144] Setting up label_data_1_split
I0606 11:02:23.397832 23498 net.cpp:151] Top shape: 50 (50)
I0606 11:02:23.397835 23498 net.cpp:151] Top shape: 50 (50)
I0606 11:02:23.397837 23498 net.cpp:159] Memory required for data: 30918000
I0606 11:02:23.397840 23498 layer_factory.hpp:77] Creating layer conv1
I0606 11:02:23.397848 23498 net.cpp:94] Creating Layer conv1
I0606 11:02:23.397850 23498 net.cpp:435] conv1 <- data
I0606 11:02:23.397855 23498 net.cpp:409] conv1 -> conv1
I0606 11:02:23.398421 23498 net.cpp:144] Setting up conv1
I0606 11:02:23.398447 23498 net.cpp:151] Top shape: 50 96 55 55 (14520000)
I0606 11:02:23.398450 23498 net.cpp:159] Memory required for data: 88998000
I0606 11:02:23.398459 23498 layer_factory.hpp:77] Creating layer relu1
I0606 11:02:23.398478 23498 net.cpp:94] Creating Layer relu1
I0606 11:02:23.398483 23498 net.cpp:435] relu1 <- conv1
I0606 11:02:23.398486 23498 net.cpp:396] relu1 -> conv1 (in-place)
I0606 11:02:23.398491 23498 net.cpp:144] Setting up relu1
I0606 11:02:23.398495 23498 net.cpp:151] Top shape: 50 96 55 55 (14520000)
I0606 11:02:23.398497 23498 net.cpp:159] Memory required for data: 147078000
I0606 11:02:23.398499 23498 layer_factory.hpp:77] Creating layer norm1
I0606 11:02:23.398504 23498 net.cpp:94] Creating Layer norm1
I0606 11:02:23.398507 23498 net.cpp:435] norm1 <- conv1
I0606 11:02:23.398511 23498 net.cpp:409] norm1 -> norm1
I0606 11:02:23.398537 23498 net.cpp:144] Setting up norm1
I0606 11:02:23.398542 23498 net.cpp:151] Top shape: 50 96 55 55 (14520000)
I0606 11:02:23.398545 23498 net.cpp:159] Memory required for data: 205158000
I0606 11:02:23.398546 23498 layer_factory.hpp:77] Creating layer pool1
I0606 11:02:23.398550 23498 net.cpp:94] Creating Layer pool1
I0606 11:02:23.398552 23498 net.cpp:435] pool1 <- norm1
I0606 11:02:23.398556 23498 net.cpp:409] pool1 -> pool1
I0606 11:02:23.398581 23498 net.cpp:144] Setting up pool1
I0606 11:02:23.398586 23498 net.cpp:151] Top shape: 50 96 27 27 (3499200)
I0606 11:02:23.398588 23498 net.cpp:159] Memory required for data: 219154800
I0606 11:02:23.398591 23498 layer_factory.hpp:77] Creating layer conv2
I0606 11:02:23.398597 23498 net.cpp:94] Creating Layer conv2
I0606 11:02:23.398600 23498 net.cpp:435] conv2 <- pool1
I0606 11:02:23.398604 23498 net.cpp:409] conv2 -> conv2
I0606 11:02:23.401435 23498 net.cpp:144] Setting up conv2
I0606 11:02:23.401458 23498 net.cpp:151] Top shape: 50 256 27 27 (9331200)
I0606 11:02:23.401461 23498 net.cpp:159] Memory required for data: 256479600
I0606 11:02:23.401468 23498 layer_factory.hpp:77] Creating layer relu2
I0606 11:02:23.401489 23498 net.cpp:94] Creating Layer relu2
I0606 11:02:23.401492 23498 net.cpp:435] relu2 <- conv2
I0606 11:02:23.401510 23498 net.cpp:396] relu2 -> conv2 (in-place)
I0606 11:02:23.401531 23498 net.cpp:144] Setting up relu2
I0606 11:02:23.401542 23498 net.cpp:151] Top shape: 50 256 27 27 (9331200)
I0606 11:02:23.401551 23498 net.cpp:159] Memory required for data: 293804400
I0606 11:02:23.401561 23498 layer_factory.hpp:77] Creating layer norm2
I0606 11:02:23.401572 23498 net.cpp:94] Creating Layer norm2
I0606 11:02:23.401576 23498 net.cpp:435] norm2 <- conv2
I0606 11:02:23.401581 23498 net.cpp:409] norm2 -> norm2
I0606 11:02:23.401610 23498 net.cpp:144] Setting up norm2
I0606 11:02:23.401616 23498 net.cpp:151] Top shape: 50 256 27 27 (9331200)
I0606 11:02:23.401618 23498 net.cpp:159] Memory required for data: 331129200
I0606 11:02:23.401621 23498 layer_factory.hpp:77] Creating layer pool2
I0606 11:02:23.401625 23498 net.cpp:94] Creating Layer pool2
I0606 11:02:23.401628 23498 net.cpp:435] pool2 <- norm2
I0606 11:02:23.401631 23498 net.cpp:409] pool2 -> pool2
I0606 11:02:23.401654 23498 net.cpp:144] Setting up pool2
I0606 11:02:23.401659 23498 net.cpp:151] Top shape: 50 256 13 13 (2163200)
I0606 11:02:23.401660 23498 net.cpp:159] Memory required for data: 339782000
I0606 11:02:23.401662 23498 layer_factory.hpp:77] Creating layer conv3
I0606 11:02:23.401669 23498 net.cpp:94] Creating Layer conv3
I0606 11:02:23.401671 23498 net.cpp:435] conv3 <- pool2
I0606 11:02:23.401675 23498 net.cpp:409] conv3 -> conv3
I0606 11:02:23.416115 23498 net.cpp:144] Setting up conv3
I0606 11:02:23.416417 23498 net.cpp:151] Top shape: 50 384 13 13 (3244800)
I0606 11:02:23.416453 23498 net.cpp:159] Memory required for data: 352761200
I0606 11:02:23.416496 23498 layer_factory.hpp:77] Creating layer relu3
I0606 11:02:23.416539 23498 net.cpp:94] Creating Layer relu3
I0606 11:02:23.416569 23498 net.cpp:435] relu3 <- conv3
I0606 11:02:23.416602 23498 net.cpp:396] relu3 -> conv3 (in-place)
I0606 11:02:23.416642 23498 net.cpp:144] Setting up relu3
I0606 11:02:23.416668 23498 net.cpp:151] Top shape: 50 384 13 13 (3244800)
I0606 11:02:23.416694 23498 net.cpp:159] Memory required for data: 365740400
I0606 11:02:23.416719 23498 layer_factory.hpp:77] Creating layer conv4
I0606 11:02:23.416749 23498 net.cpp:94] Creating Layer conv4
I0606 11:02:23.416775 23498 net.cpp:435] conv4 <- conv3
I0606 11:02:23.416802 23498 net.cpp:409] conv4 -> conv4
I0606 11:02:23.426179 23498 net.cpp:144] Setting up conv4
I0606 11:02:23.426517 23498 net.cpp:151] Top shape: 50 384 13 13 (3244800)
I0606 11:02:23.426551 23498 net.cpp:159] Memory required for data: 378719600
I0606 11:02:23.426586 23498 layer_factory.hpp:77] Creating layer relu4
I0606 11:02:23.426630 23498 net.cpp:94] Creating Layer relu4
I0606 11:02:23.426657 23498 net.cpp:435] relu4 <- conv4
I0606 11:02:23.426688 23498 net.cpp:396] relu4 -> conv4 (in-place)
I0606 11:02:23.426720 23498 net.cpp:144] Setting up relu4
I0606 11:02:23.426748 23498 net.cpp:151] Top shape: 50 384 13 13 (3244800)
I0606 11:02:23.426772 23498 net.cpp:159] Memory required for data: 391698800
I0606 11:02:23.426797 23498 layer_factory.hpp:77] Creating layer conv5
I0606 11:02:23.426838 23498 net.cpp:94] Creating Layer conv5
I0606 11:02:23.426863 23498 net.cpp:435] conv5 <- conv4
I0606 11:02:23.426892 23498 net.cpp:409] conv5 -> conv5
I0606 11:02:23.432446 23498 net.cpp:144] Setting up conv5
I0606 11:02:23.432523 23498 net.cpp:151] Top shape: 50 256 13 13 (2163200)
I0606 11:02:23.432524 23498 net.cpp:159] Memory required for data: 400351600
I0606 11:02:23.432544 23498 layer_factory.hpp:77] Creating layer relu5
I0606 11:02:23.432561 23498 net.cpp:94] Creating Layer relu5
I0606 11:02:23.432569 23498 net.cpp:435] relu5 <- conv5
I0606 11:02:23.432580 23498 net.cpp:396] relu5 -> conv5 (in-place)
I0606 11:02:23.432646 23498 net.cpp:144] Setting up relu5
I0606 11:02:23.432651 23498 net.cpp:151] Top shape: 50 256 13 13 (2163200)
I0606 11:02:23.432653 23498 net.cpp:159] Memory required for data: 409004400
I0606 11:02:23.432656 23498 layer_factory.hpp:77] Creating layer pool5
I0606 11:02:23.432667 23498 net.cpp:94] Creating Layer pool5
I0606 11:02:23.432668 23498 net.cpp:435] pool5 <- conv5
I0606 11:02:23.432675 23498 net.cpp:409] pool5 -> pool5
I0606 11:02:23.432746 23498 net.cpp:144] Setting up pool5
I0606 11:02:23.432750 23498 net.cpp:151] Top shape: 50 256 6 6 (460800)
I0606 11:02:23.432752 23498 net.cpp:159] Memory required for data: 410847600
I0606 11:02:23.432755 23498 layer_factory.hpp:77] Creating layer fc6
I0606 11:02:23.432763 23498 net.cpp:94] Creating Layer fc6
I0606 11:02:23.432765 23498 net.cpp:435] fc6 <- pool5
I0606 11:02:23.432770 23498 net.cpp:409] fc6 -> fc6
I0606 11:02:23.744980 23498 net.cpp:144] Setting up fc6
I0606 11:02:23.745003 23498 net.cpp:151] Top shape: 50 4096 (204800)
I0606 11:02:23.745005 23498 net.cpp:159] Memory required for data: 411666800
I0606 11:02:23.745013 23498 layer_factory.hpp:77] Creating layer relu6
I0606 11:02:23.745019 23498 net.cpp:94] Creating Layer relu6
I0606 11:02:23.745023 23498 net.cpp:435] relu6 <- fc6
I0606 11:02:23.745028 23498 net.cpp:396] relu6 -> fc6 (in-place)
I0606 11:02:23.745033 23498 net.cpp:144] Setting up relu6
I0606 11:02:23.745039 23498 net.cpp:151] Top shape: 50 4096 (204800)
I0606 11:02:23.745043 23498 net.cpp:159] Memory required for data: 412486000
I0606 11:02:23.745059 23498 layer_factory.hpp:77] Creating layer drop6
I0606 11:02:23.745062 23498 net.cpp:94] Creating Layer drop6
I0606 11:02:23.745065 23498 net.cpp:435] drop6 <- fc6
I0606 11:02:23.745069 23498 net.cpp:396] drop6 -> fc6 (in-place)
I0606 11:02:23.745118 23498 net.cpp:144] Setting up drop6
I0606 11:02:23.745122 23498 net.cpp:151] Top shape: 50 4096 (204800)
I0606 11:02:23.745126 23498 net.cpp:159] Memory required for data: 413305200
I0606 11:02:23.745127 23498 layer_factory.hpp:77] Creating layer fc7
I0606 11:02:23.745154 23498 net.cpp:94] Creating Layer fc7
I0606 11:02:23.745157 23498 net.cpp:435] fc7 <- fc6
I0606 11:02:23.745162 23498 net.cpp:409] fc7 -> fc7
I0606 11:02:23.883548 23498 net.cpp:144] Setting up fc7
I0606 11:02:23.883570 23498 net.cpp:151] Top shape: 50 4096 (204800)
I0606 11:02:23.883574 23498 net.cpp:159] Memory required for data: 414124400
I0606 11:02:23.883581 23498 layer_factory.hpp:77] Creating layer relu7
I0606 11:02:23.883589 23498 net.cpp:94] Creating Layer relu7
I0606 11:02:23.883591 23498 net.cpp:435] relu7 <- fc7
I0606 11:02:23.883596 23498 net.cpp:396] relu7 -> fc7 (in-place)
I0606 11:02:23.883604 23498 net.cpp:144] Setting up relu7
I0606 11:02:23.883606 23498 net.cpp:151] Top shape: 50 4096 (204800)
I0606 11:02:23.883608 23498 net.cpp:159] Memory required for data: 414943600
I0606 11:02:23.883610 23498 layer_factory.hpp:77] Creating layer drop7
I0606 11:02:23.883630 23498 net.cpp:94] Creating Layer drop7
I0606 11:02:23.883632 23498 net.cpp:435] drop7 <- fc7
I0606 11:02:23.883635 23498 net.cpp:396] drop7 -> fc7 (in-place)
I0606 11:02:23.883682 23498 net.cpp:144] Setting up drop7
I0606 11:02:23.883685 23498 net.cpp:151] Top shape: 50 4096 (204800)
I0606 11:02:23.883687 23498 net.cpp:159] Memory required for data: 415762800
I0606 11:02:23.883689 23498 layer_factory.hpp:77] Creating layer fc8
I0606 11:02:23.883697 23498 net.cpp:94] Creating Layer fc8
I0606 11:02:23.883698 23498 net.cpp:435] fc8 <- fc7
I0606 11:02:23.883703 23498 net.cpp:409] fc8 -> fc8
I0606 11:02:23.884011 23498 net.cpp:144] Setting up fc8
I0606 11:02:23.884017 23498 net.cpp:151] Top shape: 50 6 (300)
I0606 11:02:23.884019 23498 net.cpp:159] Memory required for data: 415764000
I0606 11:02:23.884023 23498 layer_factory.hpp:77] Creating layer fc8_fc8_0_split
I0606 11:02:23.884027 23498 net.cpp:94] Creating Layer fc8_fc8_0_split
I0606 11:02:23.884029 23498 net.cpp:435] fc8_fc8_0_split <- fc8
I0606 11:02:23.884033 23498 net.cpp:409] fc8_fc8_0_split -> fc8_fc8_0_split_0
I0606 11:02:23.884049 23498 net.cpp:409] fc8_fc8_0_split -> fc8_fc8_0_split_1
I0606 11:02:23.884104 23498 net.cpp:144] Setting up fc8_fc8_0_split
I0606 11:02:23.884109 23498 net.cpp:151] Top shape: 50 6 (300)
I0606 11:02:23.884124 23498 net.cpp:151] Top shape: 50 6 (300)
I0606 11:02:23.884126 23498 net.cpp:159] Memory required for data: 415766400
I0606 11:02:23.884129 23498 layer_factory.hpp:77] Creating layer accuracy
I0606 11:02:23.884132 23498 net.cpp:94] Creating Layer accuracy
I0606 11:02:23.884135 23498 net.cpp:435] accuracy <- fc8_fc8_0_split_0
I0606 11:02:23.884138 23498 net.cpp:435] accuracy <- label_data_1_split_0
I0606 11:02:23.884141 23498 net.cpp:409] accuracy -> accuracy
…
